data/loras/echo_brain_test_lora_20251230_010705.safetensors (safetensors, 32020 bytes, 6 tensors)

lora_unet_down_blocks_0_attentions_0_transformer_blocks_0_attn1_to_k.lora_down.weight f4 [4, 320]
000000 3a 75 5b bf 7a d5 a1 3f af 26 76 bf b0 f6 0f be
       -0.8572575 1.2643273 -0.96152776 -0.14058948
000010 f3 80 83 3f 4a c6 a3 bf fd fe cd bf 4e 5a 71 3d
       1.0273727 -1.2794888 -1.6093441 0.058924012
000020 30 cf 58 bf f5 3a 0d bf 3d 88 1c be 43 dc 80 bf
       -0.84691143 -0.55168086 -0.15286346 -1.0067219
000030 65 35 c6 bf 01 d0 34 c0 60 0c 65 be 9e c0 21 3e
       -1.5485045 -2.8251956 -0.22368002 0.15796134
000040 9b f6 5a bf c2 60 85 bf bf 42 2c 3f 19 b2 c6 be
       -0.8553254 -1.0420153 0.67289346 -0.38807753
000050 20 15 6e 3e 73 3d 9e bf 91 97 09 bf 22 77 73 3f
       0.23250246 -1.2362503 -0.53746897 0.9510366
000060 88 e3 8d be 6b fe 88 3f d1 c3 8c 3e cf 52 34 3f
       -0.27712655 1.0702642 0.27493146 0.70438856
000070 82 33 9e 3f 5c 32 17 bf e6 f7 03 be 65 a6 38 bf
       1.2359469 -0.5906122 -0.12887534 -0.721289
000080 85 62 7a 3f 28 9b b9 bf b1 61 15 3d 9a d7 e4 be
       0.9780658 -1.4500475 0.03647012 -0.4469574
000090 c4 47 bb 3d f2 cf 15 bf 07 2d 58 bf 3e 71 ac 3d
       0.091445476 -0.58520424 -0.84443706 0.08420037
0000a0 16 6d 03 bf f3 f7 81 bf c3 58 34 3f db bb eb bd
       -0.51338327 -1.0153793 0.7044794 -0.1151044
0000b0 bc 32 12 c0 61 db 3b 3d cb f9 6a bd 9f 48 5f be
       -2.2843466 0.045863513 -0.057367127 -0.21805046
0000c0 3f 36 62 3e 2e 4f 4b bf d8 7d eb be 32 19 95 bd
       0.22091006 -0.79417694 -0.4599445 -0.07280196
0000d0 39 04 77 be 3a d7 cd be 6d bd 83 bf 5c 29 ea 3f
       -0.24122705 -0.40203267 -1.0292183 1.8293872
0000e0 6b b0 8e 3f 80 29 0b 40 44 c4 78 bf 72 d4 c2 be
       1.1147588 2.174408 -0.9717448 -0.38052708
0000f0 32 19 4b bf bf 3f a9 3e 65 d9 87 be 9e 8d 82 bd
       -0.7933532 0.33056447 -0.26533046 -0.063746676
000100 e9 75 5c 3f 4f 1d 08 3d 40 f8 73 bf 00 a4 06 c0
       0.86117417 0.033231076 -0.95300674 -2.1037598
000110 b8 42 02 bf fc 91 65 3f c5 fb 74 bf e1 ab 92 bf
       -0.50883055 0.8967588 -0.9569667 -1.1458703
000120 6b 9e 3a bf e7 19 f4 bd 6c ee 01 3f 40 9b 3b bf
       -0.72897977 -0.11919003 0.5075443 -0.7328377
000130 d2 b0 a4 3e d2 e8 01 c0 0f 23 25 3f aa 4d 9e bf
       0.32166153 -2.0298352 0.6450662 -1.2367451
000140 b6 88 0c bf c8 49 fc 3f e9 54 20 bf 28 b6 39 3f
       -0.54896104 1.9710016 -0.6262956 0.72543573
000150 94 f5 53 be df 36 bd be 57 7e 37 3d 3e 15 ce 3f
       -0.2069915 -0.36955926 0.04479822 1.6100233
000160 4c b5 e3 be c5 30 9c bd 3c a8 09 40 dd b5 3e be
       -0.44474256 -0.076264895 2.1508932 -0.18624063
000170 15 86 9b bf 0f 61 da 3f 19 60 09 bf 00 50 1e bf
       -1.2150294 1.706087 -0.5366226 -0.6184082
000180 38 9f 9d 3e b7 c6 dc bf 5b e8 60 bf f5 e3 02 40
       0.30785537 -1.7248143 -0.87854546 2.0451634
000190 1c 36 ca 3c a1 10 61 40 58 ec 56 40 c5 fb d8 3f
       0.024684004 3.51664 3.3581753 1.6951834
0001a0 36 53 47 3f 6e e1 37 3e b7 59 48 3e 0f 4b 8b bf
       0.77861345 0.17957088 0.19565473 -1.0882281
0001b0 06 79 b5 bf 4b 14 9d bf 7f e3 74 3f f1 f7 ab bf
       -1.4177558 -1.2271818 0.9565963 -1.3435041
0001c0 01 6a 51 3f 5d 75 d2 be 6d 55 73 be 9e 17 b8 3f
       0.81802374 -0.41105166 -0.23763056 1.4382207
0001d0 b3 ad 72 be 2f ce 22 c0 5b 5e 21 bf 4a 9b ab 3f
       -0.23699073 -2.5438344 -0.630346 1.3406765
0001e0 19 69 46 bf ab 43 c2 bf 34 7d 9b 3f 99 b0 70 3f
       -0.77504116 -1.5176901 1.2147584 0.94019467
0001f0 d8 c0 77 bf ef 17 99 3d a2 df 46 bd 93 07 bf bf
       -0.9677863 0.07475268 -0.048553117 -1.4924186
000200 dc 59 5e bb f4 a8 74 3f 30 13 69 bf 73 57 c0 be
       -0.0033928072 0.955703 -0.910449 -0.37566718
000210 7e 6b b7 bd 25 1b a3 bf 70 28 6f 3f 81 c1 99 be
       -0.089560494 -1.2742659 0.9342108 -0.30030444
000220 bc f0 11 bf b9 2e ff 3c 18 91 9e be 4a 9d 00 bf
       -0.57007957 0.031150209 -0.30970073 -0.50240004
000230 d3 23 e7 3f e4 de 64 bf 58 30 01 3e 8b 3e 39 bf
       1.8057808 -0.89402604 0.12616098 -0.7236106
000240 fc 4d d5 3f 2b f2 9d 3c e3 3d b7 bf fd d1 ea 3f
       1.6664424 0.019280514 -1.4315761 1.8345333
000250 57 ac c6 bf 72 18 3e bf be 69 62 3f 0d 4e 9a 3f
       -1.5521344 -0.7425605 0.884426 1.2055069
000260 4c dc 5e 3f 73 b2 ff 3f 39 1b 09 3f fe 87 8a be
       0.87054896 1.9976333 0.53557163 -0.2705688
000270 0a 3e 68 3c df 63 1f bf 56 ec a8 3f 0e ff 9c 3f
       0.0141749475 -0.62261766 1.3197124 1.2265337
000280 e7 c9 6d 3f 52 80 39 bf fd 7e 36 bf 82 52 27 3f
       0.92886204 -0.72461426 -0.7128752 0.6536027
000290 48 da e5 3e fe 98 f4 be 1a 7c 5b 3e d3 6e 1d bf
       0.44893098 -0.47772974 0.2143406 -0.6149723
0002a0 f4 46 37 be 77 ce 10 3f 30 6b af be 78 a9 53 3e
       -0.1789816 0.5656504 -0.34261465 0.20670116
0002b0 a7 bc 83 3e 8b 1d 70 bf df 63 91 be a5 32 b4 bf
       0.25729868 -0.9379508 -0.28396508 -1.4077955
0002c0 fd a1 34 3e 34 09 b5 bd 84 1a a3 3f 30 3e d6 be
       0.17639919 -0.08839646 1.2742467 -0.4184432
0002d0 9b 02 9f bd 51 ec 68 3d 49 e0 32 bf cb 41 fd 3d
       -0.07764169 0.056865994 -0.6987348 0.12366065
0002e0 51 08 49 bf 46 62 cf 3f 55 e1 72 bf 22 52 ef be
       -0.78528315 1.6201866 -0.9487508 -0.4674235
0002f0 c2 29 19 bf 76 56 a0 bf 0a 6c 07 3e ef 61 11 40
       -0.5982934 -1.2526386 0.13224807 2.2716024
000300 7c a3 ee 3d 10 1e 43 3e b2 18 56 be f6 e3 c2 bf
       0.11652276 0.19054437 -0.20907858 -1.5225818
000310 b8 f6 a1 bf 41 c9 65 be cd 88 f0 be 0b a2 71 bd
       -1.2653418 -0.22440054 -0.4697937 -0.058992427
000320 c0 ed f5 bf 6c 90 85 3f 1d 51 f1 3e c7 19 85 bf
       -1.921318 1.0434699 0.47132197 -1.0398492
000330 f5 c4 38 c0 77 40 5e 3e 78 b1 3c bf fa 62 6f 3f
       -2.8870213 0.21704279 -0.73708296 0.935104
000340 b1 ff cd be 99 2f 37 3d 95 91 8d bf 3b bc fb be
       -0.4023414 0.044723127 -1.1060053 -0.49167046
000350 33 b9 21 3f f5 54 e7 be 11 93 ae bf b6 83 3f 3f
       0.63173217 -0.45182005 -1.3638631 0.7481035
000360 37 5e c4 3e f9 00 5e bf 19 08 b2 3f 69 fa 69 bf
       0.3835313 -0.86720234 1.3908721 -0.9139772
000370 de 8a 38 bf 54 d5 8f be 86 1d 5e 3f 71 2e 04 3e
       -0.72086895 -0.28092444 0.867638 0.12908341
000380 0c 94 a8 3e 18 6d 44 be 8a b6 a3 3f ce 87 39 c0
       0.3292545 -0.19182241 1.2790082 -2.8989139
000390 ef 58 b8 3e 41 03 c4 3e a5 fc 80 be d5 9e 8f 3e
       0.3600535 0.38283733 -0.25192752 0.28050867
0003a0 47 7e 81 bf 5a 15 47 c0 36 43 f2 bf 7c 74 d2 3e
       -1.0116662 -3.1106782 -1.8926761 0.41104496
0003b0 6d af 51 bf 83 06 d7 3e 1f 89 31 bf 30 a6 df 3c
       -0.81908303 0.41997156 -0.69349855 0.027300924
0003c0 7c b7 8f be a8 3a 2d bf 40 4b 15 3f a1 10 25 3e
       -0.28069675 -0.6766763 0.5831795 0.16119625
0003d0 3b dd c6 bd 03 65 da 3f c4 6a 2b be 8e 6a c6 be
       -0.09710165 1.7062076 -0.16739947 -0.3875317
0003e0 58 17 d8 bd 33 5d 9c bf e7 16 83 3e 6b 1b b5 3e
       -0.105513275 -1.2215942 0.2560341 0.3537248
0003f0 75 06 31 3e 62 36 c9 be 23 9c c2 3e 2a 0b 86 be
       0.1728762 -0.39299303 0.38009748 -0.26180393

lora_unet_down_blocks_0_attentions_0_transformer_blocks_0_attn1_to_k.lora_up.weight f4 [320, 4]
000000 2d 07 61 3f 1d 83 07 bf fd c7 00 bf 15 cf 5b 3f
       0.87901574 -0.5293444 -0.5030516 0.8586286
000010 da f9 3b bd 70 d0 cb be 82 1d f7 3d 82 54 13 3f
       -0.045892574 -0.39807463 0.12066175 0.57550824
000020 aa d0 1d 3e 10 d7 92 3f cf 35 f8 3f ec 4b 1f 3f
       0.1541163 1.1471882 1.9391421 0.6222522
000030 0a 87 c3 bf b5 4b 03 3d 6d ea b6 3e ff f0 b6 3e
       -1.5275586 0.03205462 0.35725728 0.3573074
000040 e8 53 be be 12 ad f8 3e f8 62 46 be e8 af 2d bf
       -0.3717339 0.48569542 -0.19373691 -0.67846537
000050 ba ac 8b 3e 3e 9e 1d 3f ec e9 ee 3e 2b c2 ad 3f
       0.27280217 0.61569583 0.46662843 1.357488
000060 d8 7d 76 bf 87 46 a6 bf ed aa 67 bf 32 57 54 3f
       -0.9628577 -1.2990273 -0.9049519 0.8294555
000070 94 c4 2a 3f 31 c4 61 bf 8c ab 02 40 6a 3a 77 bc
       0.66706204 -0.8818999 2.0417204 -0.015089611
000080 35 1c 2f ba 3d d5 a6 be 3e 8d 33 bf 8c c8 a2 3e
       -0.00066799234 -0.32584563 -0.70137393 0.3179363
000090 db 6d 28 3f 2a f6 0d 3f d5 23 da 3d 89 08 e8 be
       0.65792626 0.5545374 0.10651366 -0.45319012
0000a0 df 25 10 c0 22 48 61 bf 2a 4b da 3f 36 ce 03 40
       -2.2523115 -0.8800069 1.7054188 2.059461
0000b0 59 d4 71 bf 36 38 73 3e e8 05 58 3e 92 a7 d0 bd
       -0.9446464 0.23751912 0.21096003 -0.101882115
0000c0 ae f3 71 3f 7e 3c a5 3d b8 d5 ee 3f ec 2d 45 3f
       0.9451245 0.080681786 1.8658972 0.77023196
0000d0 10 e6 f4 3e 8d fb d0 3e aa b3 9e 3f d8 e4 07 3f
       0.47831774 0.40816918 1.2398579 0.5308356
0000e0 f3 77 3d 3f 28 04 de 3e 40 d3 8d bd 55 e3 a2 3f
       0.74011153 0.43362546 -0.06925058 1.2725626
0000f0 52 c8 47 3e 57 68 c8 bc 78 78 ee be cf ce a4 3f
       0.1951001 -0.024463816 -0.46576285 1.2875613
000100 6e 69 4d bf 23 57 91 bf 3d 62 6b bf 2e 1b b3 3f
       -0.80239 -1.1354717 -0.91946775 1.399267
000110 9f c0 7b 3f ca cf f1 be 35 f8 48 3f ef a9 3c be
       0.9834079 -0.47228843 0.78503734 -0.184242
000120 aa 28 64 3f 03 58 f1 bf ff 24 7b 3e 7f b3 0e 40
       0.8912455 -1.8854984 0.24525832 2.2297056
000130 97 1e 01 3e 07 e9 45 bf 52 22 24 3f 34 5a 28 be
       0.12609325 -0.77308697 0.6411487 -0.1644066
000140 9c 34 8a be 3d 53 dd 3e 13 bf 47 3f ed b4 08 be
       -0.26993263 0.43227568 0.7802593 -0.13350268
000150 22 9d 03 40 e9 5d c1 be 26 ff 97 be 49 99 0d bf
       2.0564656 -0.3776696 -0.2968685 -0.5531202
000160 a9 9c 20 be fb 93 d8 3e ee 99 c0 bf c0 54 a8 3e
       -0.15684761 0.423004 -1.5046976 0.3287716
000170 a6 03 0a bf 5b 90 ea be ca 6e 3a bf 75 23 22 3f
       -0.5391182 -0.4581326 -0.728253 0.63335353
000180 0d d6 71 be c8 13 52 3f 4e 7e b6 be 86 46 26 be
       -0.2361681 0.82061434 -0.35643238 -0.1623784
000190 00 0f 58 3f 98 55 17 bf 0c 8c 3d 3e 30 75 12 bf
       0.8439789 -0.5911498 0.18510455 -0.57210064
0001a0 2e b7 6d 3e 60 21 59 3e 1c c2 be 3e 01 84 bd bf
       0.23214409 0.21204138 0.3725747 -1.4805909
0001b0 2f d2 e9 bf 42 0e 71 3f 56 16 2b bf 4b 95 a2 be
       -1.8267268 0.9416238 -0.66830957 -0.31754526
0001c0 13 93 06 3f cd 49 a1 3d 17 a6 2f be b1 a8 7e bc
       0.5256817 0.078754045 -0.17153202 -0.015543149
0001d0 7f 9c 6c bf 15 89 12 c0 50 9c 03 c0 9d a9 86 bf
       -0.92426294 -2.2896168 -2.0564156 -1.0520512
0001e0 02 ec 9e 3f 5c 14 cd 3f c2 e3 48 bd 2f 55 42 3e
       1.2415774 1.6021838 -0.04904533 0.18977807
0001f0 a6 a1 cd 3e f3 92 9f 3f f9 91 6a bf d0 bd 13 bf
       0.4016239 1.246672 -0.91628987 -0.57711506
000200 02 fe 6b 3f 7d cc 6f 3f 5f 20 5e bf cf c3 48 3f
       0.9218446 0.936714 -0.86768144 0.7842378
000210 3b 47 63 3f 75 c4 c2 bf bc 71 16 3e 9b b5 52 be
       0.88780564 -1.5216204 0.14691824 -0.2057709
000220 d0 c4 d9 bf 00 bf 4b 3f 48 86 2c bf 90 b3 d6 3e
       -1.7013187 0.7958832 -0.67392397 0.4193387
000230 3c ab 8c bf 3e ea 5c 3f b1 12 87 bf 27 7f 92 3f
       -1.0989757 0.86294925 -1.0552579 1.1445054
000240 76 8a 8f be b2 9a 86 bf bf e7 a2 3e 34 f7 30 bf
       -0.28035325 -1.0515959 0.31817433 -0.691272
000250 72 d8 06 3d c0 13 c2 3f 48 63 de bf 18 5d 6f 3f
       0.032921262 1.5162277 -1.7374048 0.93501425
000260 46 40 37 bf 88 5e 2d be 0a b9 d5 bd ce 12 b7 3e
       -0.7158245 -0.16930592 -0.10435684 0.35756534
000270 be 7c 35 3f ef 60 84 3f 58 65 ab bf 9e f1 ff bf
       0.70893466 1.0342082 -1.3390303 -1.9995611
000280 da 94 99 3f 13 d4 51 bf d6 77 a8 bf 50 8a 93 bf
       1.1998551 -0.81964225 -1.3161571 -1.1526585
000290 21 11 9a be 62 18 53 bf ea aa 8b bf 0d bd 46 3f
       -0.30091193 -0.8245908 -1.0911534 0.7763222
0002a0 76 f7 8f bf 14 61 3a 3f 28 ff c0 ba b4 3a 57 bd
       -1.1247394 0.7280438 -0.001472448 -0.052546218
0002b0 e4 03 c2 3f e0 60 39 bf 0c e4 6a bf af 86 98 3f
       1.5157437 -0.72413445 -0.9175422 1.1916102
0002c0 bb 9f 06 bd 8c 0b 3a 3f 72 69 99 be 39 98 cb 3f
       -0.032867175 0.7267387 -0.2996326 1.590583
0002d0 d3 6c 2f be fb c2 de be 02 d4 31 bf a4 b4 fa 3e
       -0.17131357 -0.43508133 -0.69464123 0.48965943
0002e0 38 be 17 bf 0c aa 14 3f c4 bf d3 bf 66 a3 93 3d
       -0.59274626 0.5807197 -1.6542897 0.072089
0002f0 f9 22 6e bf 95 d6 a5 be aa 26 2d be 47 bf 47 3f
       -0.93022114 -0.32390276 -0.1690928 0.7802624
000300 85 21 9a 3d d3 81 a8 3e 9d 71 be 3f b7 3a 0e 40
       0.075259246 0.32911548 1.4878422 2.2223337
000310 90 75 b7 bf ed 36 7a 3f 0c bc 99 3f 9c e6 c9 be
       -1.4332752 0.9774006 1.2010512 -0.39433753
000320 7e f3 ae be 71 70 bd be 41 0b b3 be 59 cc 68 bf
       -0.34170145 -0.36999848 -0.34969524 -0.9093681
000330 03 3b ae be db 2d 47 3c d5 7d 3c 3e c6 2d 57 be
       -0.34029397 0.012156929 0.18407376 -0.21013555
000340 3c 58 99 bd 22 5d 3d 3f ba 5e a1 3f a6 e7 ba 3f
       -0.074875325 0.73970234 1.2607033 1.4601943
000350 88 e1 db 3f cf ab 8b 3f e1 a3 67 3f 52 62 b8 3e
       1.7178202 1.0911807 0.90484434 0.36012512
000360 0a 05 a5 3f 6e 87 04 be 47 ad 34 be e0 b5 b3 bb
       1.2892163 -0.12942287 -0.17644225 -0.0054843277
000370 39 af 9f be df 39 12 bf 98 ef 72 3f 38 cc fb bf
       -0.31188372 -0.57119554 0.9489684 -1.9671698
000380 6a d1 bd be f4 16 79 3e 8c 1f 1c 3e 18 d8 13 bf
       -0.37073833 0.24325162 0.15246409 -0.5775161
000390 f8 d4 10 bf 7f b1 56 3f 8b ed 0a c0 35 6e e1 3c
       -0.56574965 0.8386459 -2.1707485 0.027518371
0003a0 68 78 05 3d 67 63 6c 3f b2 04 a8 bd 2f c5 25 c0
       0.03258553 0.92339176 -0.082040206 -2.5901601
0003b0 11 98 7d bf ea 23 cf 3f d1 8a 04 bf 50 f8 2c 40
       -0.9906016 1.6182835 -0.5177432 2.7026558
0003c0 ca 45 cb bf e4 d2 80 3f 0b ad f3 3f c9 da 6d be
       -1.5880673 1.0064359 1.9037184 -0.23227991
0003d0 79 63 6f 3d e1 da 91 3f 13 3a e6 3f b6 57 62 3e
       0.058444474 1.1394922 1.7986473 0.22103772
0003e0 b3 63 5b bf 50 15 b1 bf 8b b3 05 bf f1 37 04 c0
       -0.85699004 -1.3834629 -0.52227086 -2.0659144
0003f0 b3 e2 92 3f e5 a1 2d bf f2 93 17 bf 95 01 11 bf
       1.1475433 -0.67825156 -0.5921012 -0.5664304

lora_unet_down_blocks_0_attentions_0_transformer_blocks_0_attn1_to_q.lora_down.weight f4 [4, 320]
000000 5c f8 9e 3f ee 54 6e bf c9 bc f7 3f 22 d0 2d 3f
       1.2419543 -0.9309834 1.9354488 0.6789571
000010 a2 a7 19 bf 90 12 28 3e a2 40 61 be 6a 17 ac bf
       -0.6002141 0.16413331 -0.21997312 -1.3444645
000020 d2 96 b4 3f 08 bc 78 3f d1 7f 25 c0 79 a9 bb 3e
       1.4108527 0.9716191 -2.5859263 0.36652735
000030 0f fb 44 bf f0 c5 bc bf 99 1d 41 3f 7e 67 a3 bd
       -0.76945585 -1.4747906 0.7543579 -0.07978724
000040 b7 31 73 3e 98 c4 8f 3e ed ca ca bf ff d2 08 3e
       0.23749433 0.28079677 -1.5843178 0.13361739
000050 cd 46 f1 be ce 0c 55 3e 4d 7b a3 bf 14 ab 24 3e
       -0.4712433 0.20805666 -1.2772003 0.16080886
000060 99 6a 8e 3e f0 be 1b bf 7d a7 61 3f fc 6b 46 3f
       0.27815703 -0.6083822 0.8814619 0.7750852
000070 e0 ab a4 3d 74 01 e0 3e d6 2b 9e bf c0 ed ba 3f
       0.08040595 0.4375111 -1.2357128 1.4603806
000080 56 ee 37 c0 81 d5 8f bf a9 ea 0c 3f cb 34 d1 bf
       -2.8739219 -1.1237031 0.55045563 -1.6344236
000090 42 8d b0 be 23 8f 76 bc cf 08 54 3f d8 b9 da 3e
       -0.3448277 -0.015048775 0.8282594 0.42719913
0000a0 7f ef 3d bf d5 f2 0c 3f b3 b6 16 3f 52 99 9f 3c
       -0.7419357 0.5505803 0.58872527 0.019482289
0000b0 1e fb 72 3f 63 1b d2 bf 67 7d d4 be f9 f2 98 bf
       0.94914424 -1.6414608 -0.41501924 -1.1949149
0000c0 07 37 59 3f a1 54 62 3f 01 05 97 ba 1a 7f 17 3f
       0.8484959 0.88410383 -0.0011521877 0.59178317
0000d0 f9 f9 7d 3f 3f 50 7f 3f d3 ab cc bf ad 99 7d bf
       0.99209553 0.9973182 -1.5989937 -0.99062616
0000e0 b8 29 0c bf b3 5f 0f bf a3 cb 50 3f cf 0d 51 be
       -0.5475116 -0.560054 0.81560725 -0.20415424
0000f0 3b 53 83 bf e9 e1 4a 3f d0 f3 9d 3d 0b bd 01 3e
       -1.0259775 0.7925096 0.07712519 0.1266977
000100 6c 6e c1 3e 4b ee 89 bf f0 32 25 bb db 0e 23 be
       0.37779558 -1.0775846 -0.0025207363 -0.15923636
000110 c1 bb b4 bf ee ee 80 bf 94 6f d8 bf 04 95 00 3f
       -1.4119798 -1.0072916 -1.6909051 0.5022738
000120 b6 42 a0 bf e6 e6 68 bf 6e dc bf be d9 01 c9 3f
       -1.2520359 -0.90977323 -0.37472862 1.5703689
000130 6c 99 5f bf 37 09 e1 3e 44 a3 a5 3f ae b9 99 bc
       -0.8734348 0.43952343 1.294045 -0.018765297
000140 bc 9b 48 3f 00 e0 19 bf fd 88 5f 3e f1 87 aa 3e
       0.7836263 -0.6010742 0.218296 0.3330684
000150 a6 b7 38 bf 9d e2 36 bf f0 89 bf be f4 d5 46 3f
       -0.72155225 -0.71439534 -0.37409925 0.77670217
000160 e1 77 61 3f ea d3 c0 3f 10 e9 29 c0 6e 8a b7 be
       0.88073546 1.5064671 -2.65485 -0.358478
000170 bb eb 94 bf 8b 70 0e bf 23 e3 04 3f f9 60 2a 3f
       -1.1634439 -0.55640477 0.51909083 0.6655422
000180 50 12 4f 3f 41 95 fc 3e 36 97 4f 3e fd 24 24 3f
       0.8088732 0.49332622 0.20272526 0.6411894
000190 1e 07 b6 bf eb b2 04 bf 1a 7e ff 3d a7 a8 b8 3f
       -1.4220922 -0.5183551 0.12475224 1.4426469
0001a0 04 52 85 bf 18 d1 09 bf 75 d1 81 be 39 1f 81 bf
       -1.0415654 -0.53834677 -0.25355116 -1.0087653
0001b0 43 63 55 3e af 0c ff 3e 75 5d 12 bf e1 c6 e3 3f
       0.20838647 0.49814364 -0.57173854 1.7795068
0001c0 7a 78 86 3f 73 24 3f be 6f bf 83 bf 21 be b3 3d
       1.0505517 -0.18666248 -1.0292796 0.087764986
0001d0 7a 80 1d bf 13 6b 52 bf f6 07 cf be a8 41 60 bf
       -0.61524165 -0.8219463 -0.4043576 -0.87600183
0001e0 c9 82 9d 3f 29 fc 8e 3f 05 1d 2c 3f 04 6f c3 3e
       1.2305537 1.1170703 0.6723178 0.38170636
0001f0 1d 2e 13 3e f1 29 f4 bf a3 58 0f bf ac ce 3f bf
       0.1437306 -1.90753 -0.55994624 -0.7492473
000200 51 13 01 bf 87 c0 41 3e 79 3e 00 3f 1c a9 eb 3f
       -0.504201 0.189211 0.50095326 1.8410983
000210 b5 40 42 bf b3 41 80 3f 37 10 20 bf 88 99 f6 3f
       -0.75879985 1.002005 -0.6252474 1.9265604
000220 de c1 18 3f 97 6f ce 3e 13 01 23 40 ad d8 41 be
       0.5967082 0.4031951 2.5469406 -0.18930312
000230 bd d5 38 bf 06 11 a4 3e f0 bd c0 be 9f 20 33 bf
       -0.7220114 0.32044238 -0.3764491 -0.6997165
000240 4e c7 4d bf f8 74 1b c0 61 e8 12 be f8 64 4b 3f
       -0.8038224 -2.4290142 -0.14346458 0.7945094
000250 80 f3 92 be e1 98 26 3f 55 8a 85 be 53 7d 4c bf
       -0.287014 0.65077025 -0.260821 -0.7987873
000260 ca e0 be 3f 5a d0 cc 3f b4 f5 a7 3e d3 70 02 bf
       1.491235 1.6001084 0.32804644 -0.50953406
000270 3d 28 ab 3f 26 32 f3 be 47 a6 39 bf 9d b5 2e 3f
       1.3371655 -0.47499198 -0.72519344 0.6824587
000280 30 6a 94 be 7a 98 07 3f ae 13 0d 3f 16 6e b1 3c
       -0.28987265 0.52967036 0.55108154 0.021658938
000290 c4 f7 af 3e 97 6a 50 be ac b9 b7 3f 43 b6 93 bd
       0.34368718 -0.20353161 1.4353538 -0.07212498
0002a0 9c 9e 56 bf dd de 9d bf 70 7e 70 be 87 e8 54 3e
       -0.8383577 -1.2333637 -0.23485732 0.20791827
0002b0 56 57 a6 3e e9 9c ce bf 48 f4 72 bf 6f 99 04 3f
       0.32488507 -1.6141635 -0.94903994 0.5179662
0002c0 bc aa 78 3e 53 c5 a2 3e a1 83 7f 3f 81 ef 0a 3f
       0.2428388 0.3179117 0.99810225 0.54271704
0002d0 7a ce 43 bf 3a c6 62 bd 09 d6 72 bf 2e 61 b3 3e
       -0.76486933 -0.055364825 -0.9485784 0.3503508
0002e0 79 c8 f4 be 94 e3 93 bf 45 f4 6b be 68 98 72 bd
       -0.47809198 -1.1553826 -0.230424 -0.059227377
0002f0 a0 22 00 bf 47 37 64 bf 66 70 86 3d 26 18 b4 3d
       -0.50052834 -0.89146847 0.06564407 0.087936684
000300 cb 17 ac 3e d0 95 8e be 4a 2e 72 3d a1 7f 07 40
       0.33611903 -0.27848673 0.059126176 2.1171649
000310 cd 28 e1 bf 42 6c 75 bf e2 51 36 bf 27 71 83 3d
       -1.7590576 -0.95868313 -0.71218693 0.064180665
000320 f0 b2 e0 bf d0 fd 48 3e 1e c8 4d 3e af de 52 3f
       -1.7554607 0.19628072 0.2009587 0.8237104
000330 ea 80 01 c0 f2 95 d7 bf 0d 7d de 3d 8a a6 01 bf
       -2.0234933 -1.6842635 0.10863695 -0.50644743
000340 0a c4 a4 3f 4f a7 35 3e 6d c9 e2 3f ed 2d 0b c0
       1.2872326 0.17739604 1.771772 -2.174678
000350 4f 63 21 3f 49 bb ab bf 99 72 3b bf c2 c6 9e 3e
       0.6304216 -1.341653 -0.7322174 0.31011015
000360 30 6d 53 be 71 65 29 be 64 c2 62 3e c9 0e 1d 3f
       -0.2064712 -0.16542603 0.22144467 0.61350685
000370 f5 b8 dd 3e b2 c6 d6 3f 63 cc e0 3e 01 e6 8f 3f
       0.43305174 1.6779387 0.43905935 1.1242067
000380 eb 69 8a bd e1 64 f5 be 10 fb 39 bf 8b 10 1d 3f
       -0.067584835 -0.47928527 -0.72648716 0.6135337
000390 bf 77 73 3f 7f 22 cc be 11 69 f4 bd 60 fd f4 3f
       0.95104593 -0.39870068 -0.11934102 1.9139824
0003a0 eb 3d 06 3f 77 8a 2b be c0 8d 8e 3e d7 42 39 3e
       0.5243823 -0.16752039 0.27842522 0.18091904
0003b0 e2 47 b0 bf 76 76 d2 bf 83 7a 7a bf 8d 16 ee be
       -1.3771937 -1.6442401 -0.9784319 -0.4650158
0003c0 d8 e0 20 3e 91 59 51 bf e5 47 6b 3e 35 57 8c 3f
       0.15710771 -0.8177729 0.22976644 1.0964113
0003d0 a0 ac 19 3f 75 b2 6d bf d2 5e a7 3f 29 42 96 bf
       0.6002903 -0.9285043 1.3075812 -1.173894
0003e0 41 c1 9a bf 53 e3 7c bf 40 64 e2 be 18 8b 3b bf
       -1.2090226 -0.9878437 -0.4421711 -0.73259115
0003f0 de e1 8d bf 44 1f fc 3d bc ee 4a be 21 18 a9 3e
       -1.1084554 0.12310651 -0.19817632 0.3302622

lora_unet_down_blocks_0_attentions_0_transformer_blocks_0_attn1_to_q.lora_up.weight f4 [320, 4]
000000 71 79 f3 3e d2 23 96 3c 5a 6b 7b 3f 5d 9c 4a 3e
       0.4755359 0.018327627 0.9821068 0.1978621
000010 21 76 a7 3e e0 51 ae 3f c0 a5 9c 3f 5e 9d 61 bf
       0.32707313 1.3618736 1.2238083 -0.8813075
000020 5e 3b 88 be 0a 96 c5 be 65 57 cf 3e 09 c5 68 bf
       -0.26607794 -0.38591033 0.40496364 -0.9092565
000030 fd 04 81 bf c2 ac 63 bf 4d b3 c8 3f 16 7d 59 3f
       -1.0079647 -0.8893548 1.5679718 0.8495649
000040 53 3e ad 3e a9 be 5d 3e fe ee 34 3f 83 0a 77 bd
       0.33836612 0.21654762 0.70677173 -0.06031276
000050 80 bb 43 bf 34 c3 13 3f f4 93 5a 3e c2 fd 76 bf
       -0.7645798 0.5771973 0.21345502 -0.96480954
000060 cb e2 1b 3e 27 69 fb 3e b9 a8 34 3f 38 0c 65 3f
       0.15223233 0.49103662 0.7056995 0.8947177
000070 7e 68 da be ea f5 b7 3e d5 52 17 bf 94 20 54 3f
       -0.42657846 0.35929805 -0.59110767 0.8286221
000080 5e a1 a1 3f 65 a8 d0 3e 3d 3b 52 bf c0 31 cb be
       1.262737 0.40753475 -0.8212164 -0.39686394
000090 fd 77 15 bf 5a 75 40 bf 5b c9 f6 bf 8c e4 2a bf
       -0.5838621 -0.75179064 -1.9280199 -0.66754985
0000a0 88 f8 93 3f fe f9 8b 3d f1 92 25 c0 bb 32 48 3f
       1.1560221 0.068347916 -2.5870936 0.7820241
0000b0 c1 13 58 3f 9e 19 d5 3e dc 23 ef 3e 9e 24 64 bf
       0.8440514 0.41621107 0.46707046 -0.89118373
0000c0 93 d7 11 40 4b 0a be be ee 5f 1b bf 17 5e a5 3e
       2.2787826 -0.37117228 -0.6069325 0.32298347
0000d0 b2 d1 b4 3f 64 f9 05 bf 78 13 26 3f fb 53 16 3f
       1.4126494 -0.52333665 0.64873457 0.58721894
0000e0 f2 95 31 3f 19 6b 01 bf b6 4f f1 bc 5a 14 bd 3e
       0.69369423 -0.50554043 -0.029456954 0.3692959
0000f0 ac 38 03 3e 9a 7c 91 3f ff a0 4e bf 3b a3 7e 3f
       0.12814587 1.136615 -0.8071441 0.9946782
000100 49 85 fd bf ed b7 e4 3c 82 e3 36 be be ee c4 be
       -1.98063 0.027919734 -0.17860225 -0.38463396
000110 5e 20 09 40 5e 44 56 3e 8a 81 c1 be bc 2c 90 3d
       2.1426005 0.20924518 -0.37794143 0.070397824
000120 a8 9c ca bf c7 f8 2d 3f b7 32 73 be f2 3c 3e bf
       -1.5829058 0.6795773 -0.23749815 -0.74311745
000130 4a da 3a bf a2 6c c2 3f 08 53 7c 3d 5a 87 21 3f
       -0.7298933 1.5189402 0.061602622 0.63097155
000140 55 26 a4 3e b8 fc 9f 3e 3e 6c c0 3f f1 f7 a6 3d
       0.32060495 0.31247497 1.5033033 0.0815276
000150 72 05 e6 3f 12 44 d6 bf 73 53 8c be 20 39 75 3d
       1.7970412 -1.6739523 -0.27407417 0.05986893
000160 7f e3 30 3e 58 79 be 3f 29 34 b2 bf cf fe f7 3e
       0.17274283 1.4880781 -1.3922168 0.4843659
000170 25 43 be bf 3a d8 01 bf 83 ba 49 bd cb 22 8c bf
       -1.4864241 -0.5072056 -0.049250137 -1.0948118
000180 e5 98 24 c0 80 3d 18 3f 66 aa 9a 3f 88 b9 11 3f
       -2.571832 0.5946884 1.2083251 0.56923723
000190 b7 4e 02 be a0 68 b8 3f 92 f3 14 3e 78 ca 96 bf
       -0.1272534 1.4406929 0.1454604 -1.1780539
0001a0 08 74 15 3f fb 61 06 c0 d1 99 08 40 24 3a b2 3d
       0.58380175 -2.0997303 2.1343882 0.08702496
0001b0 b9 db 57 3f 9a 16 bb bf f8 41 f4 3e 9b 80 37 3f
       0.84319645 -1.4616272 0.4770658 0.7168061
0001c0 b6 bd 44 be 29 5f b1 bf 74 42 05 bf 76 5e a7 bf
       -0.19212994 -1.3857166 -0.52054524 -1.3075702
0001d0 67 bb 8a bf 97 46 5e 3e 4e eb e6 bf 73 ac 66 bf
       -1.0838441 0.21706615 -1.8040559 -0.90106887
0001e0 c8 55 a8 3e 28 30 51 bd e4 9f aa 3e bd 12 cf 3f
       0.32877946 -0.051071316 0.33325112 1.6177593
0001f0 5b 02 9a 3f f2 31 1f bf f4 fb 24 bf 61 10 1f be
       1.2031969 -0.62185585 -0.6444695 -0.15533592
000200 fb 39 80 3f 27 71 aa be 04 7d 02 3f 85 74 c1 3e
       1.0017694 -0.33289453 0.5097201 0.3778421
000210 8c 47 95 bb f5 f8 10 3f 98 87 8e 3f aa 30 42 3f
       -0.004555648 0.5662988 1.113513 0.75855505
000220 46 c4 b2 be 3d 9a a5 3f 55 1e 4e 3f 6e 0a c4 be
       -0.3491537 1.2937695 0.80515033 -0.38289207
000230 98 83 01 40 89 64 8c 3f 6e b9 8f bf eb 2b e1 3e
       2.0236568 1.0968181 -1.1228464 0.4397882
000240 ee 99 e2 3e 32 26 b2 3f 76 c0 26 3f 59 66 82 bf
       0.44258064 1.3917906 0.6513742 -1.0187484
000250 43 b3 8b 3d 63 20 43 bf 52 5c 5e 3f 27 9d 0a 3e
       0.06821301 -0.76221293 0.8685962 0.13536511
000260 02 59 c5 bf cb 14 e2 3e 48 8b f8 3d 21 0d 98 3f
       -1.5417788 0.4415649 0.12135941 1.1879007
000270 2d dd 47 3f 4a 9f 78 3f af c6 6b 3e 59 05 31 bf
       0.7807186 0.97118056 0.2302501 -0.69148785
000280 93 b7 c1 3f 51 a1 b1 bf 16 f3 8f 3d b7 93 00 c0
       1.5134147 -1.3877355 0.07028787 -2.0090158
000290 52 1a 36 bf 70 24 14 bf 48 98 95 3d 48 a3 30 be
       -0.7113391 -0.578681 0.07304436 -0.17249787
0002a0 97 98 e9 bf bb b1 39 bf 3a 2f 0e 3f 13 20 c0 be
       -1.8249692 -0.7253682 0.5554081 -0.3752447
0002b0 0d 67 f9 bf c1 7b 7b 3e 5c ff 94 3c b7 f2 90 bf
       -1.9484574 0.24558927 0.018188171 -1.1324071
0002c0 c9 cf c2 bf 3f 1b 18 be 3b a5 b0 bf 86 f3 1e bf
       -1.5219661 -0.14854144 -1.3800424 -0.6209034
0002d0 80 1a b5 bf 1c 3e 25 bd a8 63 ed 3f 0c 2b 69 bf
       -1.4148712 -0.040342435 1.8546038 -0.9108131
0002e0 ee d4 67 bf df 9a de 3f 1d ab 46 3f 21 17 84 3f
       -0.9055928 1.7391013 0.7760485 1.0319558
0002f0 eb fc 04 c0 8e 9b 85 bf 31 2f a5 3f 5a 63 5f 3f
       -2.077937 -1.0438097 1.2905027 0.87260973
000300 0b b4 33 bf a7 f5 7c 3f e9 62 23 bf 40 ff e4 be
       -0.701966 0.98812336 -0.638228 -0.4472599
000310 d6 d3 82 bf 5f fd 91 3e 5b c7 4a bf ef 56 b9 3e
       -1.0220897 0.2851362 -0.7921044 0.36199138
000320 36 ee 60 3f 40 ed 4c 3f 12 be a9 3f 62 b5 cc 3e
       0.8786348 0.80049515 1.326113 0.39982134
000330 e3 54 c0 3f 6d 0a d5 3f 3b 47 0f 40 cd d7 db 3e
       1.5025905 1.6643807 2.2387226 0.4293808
000340 5a a7 0e 3e 10 c8 86 be aa 77 22 bf 7d 9b 9f bf
       0.13931027 -0.2632451 -0.6346384 -1.2469326
000350 90 ea 69 bf 0a d2 e3 3e b0 5a 42 3e 26 31 f7 3d
       -0.9137354 0.44496185 0.18979907 0.12069921
000360 fa 5d 1c bf 66 83 c9 3e ba 0f bf bf 92 45 38 3f
       -0.61080897 0.39358062 -1.4926674 0.71981156
000370 7a 8d bd bf 63 6a a0 3e b1 56 63 3d 39 3b c6 3f
       -1.48088 0.31331167 0.055502597 1.5486823
000380 47 69 b6 3e 36 e5 73 3e ea bd 75 bb 13 67 06 3f
       0.35627195 0.23817906 -0.003749723 0.5250103
000390 d5 b6 c4 bf 48 3d 71 3f 99 f8 e9 bd 2b ac 9c bf
       -1.5368296 0.9423413 -0.11424369 -1.2240041
0003a0 25 8d 82 3f 18 f0 4a 3e 47 5b ae bf 85 61 2a be
       1.0199324 0.19818151 -1.3621606 -0.16638763
0003b0 c3 ce c5 3f 45 ed 88 3f cf d2 15 40 1b 9d 25 3e
       1.5453724 1.0697409 2.3409917 0.16173212
0003c0 e1 90 30 3d 92 e8 2b 3f 98 00 93 3e 44 37 52 bf
       0.043106917 0.6715175 0.2871139 -0.8211558
0003d0 06 ce 78 3f 44 a7 7f 3f ae 24 5a 3f db 8a d9 be
       0.97189367 0.998646 0.8521222 -0.4248875
0003e0 dd 6f 8a bf 2d 59 7f bf b0 eb 10 3f b5 b7 76 3e
       -1.0815388 -0.99745446 0.5660963 0.24093516
0003f0 d7 a2 35 bf f0 ad 46 3f 82 c0 9b bf 0f ff d2 be
       -0.709516 0.7760916 -1.2168124 -0.4121022

lora_unet_down_blocks_0_attentions_0_transformer_blocks_0_attn1_to_v.lora_down.weight f4 [4, 320]
000000 ce a2 3d bf 67 25 23 3f 70 43 db bf 68 fe 6e 3f
       -0.74076545 0.63728946 -1.7129955 0.93356943
000010 12 4e f7 be 2a f4 f8 3e c7 da 82 be 4d fe ba bf
       -0.4830175 0.48623782 -0.2555754 -1.4608856
000020 0f 69 0c c0 a5 d4 36 be 97 da cc bf fa 4e 3a bf
       -2.1939123 -0.17854555 -1.6004208 -0.7277676
000030 7f 0a c5 3f 78 fe 86 3f bd 4f b5 3f 33 f8 cc be
       1.5393828 1.0546408 1.4164959 -0.4003311
000040 c1 16 00 bd 49 98 ef be 55 82 6f 3d a8 73 5c 3f
       -0.0312717 -0.46795872 0.058473904 0.8611398
000050 b8 e0 af be 8e a6 53 3d 8c 58 4d bd ec e2 8d be
       -0.34351134 0.05167251 -0.050133273 -0.2771219
000060 0a 77 b2 bf b8 bd 70 3e 3e 54 9a 3f 6b 6c 5f bd
       -1.3942578 0.23509872 1.2056959 -0.054546755
000070 5f 32 1b bf f0 db 94 bf 69 a1 52 be 88 cf 1f bf
       -0.60623735 -1.162962 -0.20569386 -0.6242604
000080 76 40 91 3e e0 1a b2 be 08 e3 b1 3e 26 96 d0 3e
       0.28369492 -0.3478613 0.34743524 0.40739554
000090 5c 4a 14 bf cc 18 22 3f 19 5b 08 3d 5b e3 ad 3f
       -0.57925963 0.6331909 0.033290002 1.3585008
0000a0 38 9b 88 3f c3 7c 6a 3d 97 2f f2 be 6b 12 ad bf
       1.0672369 0.05724789 -0.47301933 -1.3521246
0000b0 64 1f 4a bf fe 6f 00 be 64 fc ea be 2b 2c 98 be
       -0.7895415 -0.12542722 -0.45895684 -0.29721197
0000c0 43 33 11 3f f8 e1 a7 39 6d 29 8f bd c6 d6 0c bf
       0.56718844 0.00032021082 -0.06990323 -0.5501522
0000d0 ec 12 42 3f 81 f8 1a bf 79 7e 5a 3f ad 36 aa bf
       0.7581012 -0.60535437 0.8534923 -1.3297936
0000e0 b7 eb 0a be 17 d6 5f bf a1 46 2f 3f 30 25 98 3f
       -0.1356648 -0.8743605 0.68467146 1.1886349
0000f0 af 20 61 bf 9e e0 cd be a9 22 81 bf 2d df 4a be
       -0.87940496 -0.40210432 -1.0088702 -0.19811697
000100 72 75 0e bf 63 bf b2 3e 57 d3 18 3f ad e6 2f 3f
       -0.5564796 0.3491164 0.5969748 0.6871136
000110 88 68 ef be c1 98 87 3e 0f cb f4 bf 15 b7 60 bf
       -0.4675944 0.2648373 -1.9124469 -0.8777936
000120 7e 49 e1 3e 25 c9 d3 be d0 0d 9d be 76 42 5d be
       0.44001383 -0.413644 -0.306746 -0.21607384
000130 78 54 11 be 61 e3 94 be 49 40 85 3e 06 31 bf 3f
       -0.14192379 -0.29079726 0.26025608 1.4936836
000140 af bd 0c be 85 ae a3 3d 88 46 1f bf 22 2b 71 bc
       -0.13744234 0.07992271 -0.62217 -0.014719756
000150 f3 ae 04 40 ad ad ab 3e d3 02 0b 40 f6 ef dc be
       2.073178 0.33530942 2.1720474 -0.43151826
000160 01 5d 9c be 19 40 8a 3d bb 79 d4 be 71 29 a7 3f
       -0.30539706 0.06750507 -0.41499123 1.3059522
000170 91 52 80 3f f0 fc a8 be dc db ba 3f e7 2a d3 3d
       1.0025197 -0.33005476 1.4598346 0.10310917
000180 fb 5f 37 3e 8e ff 78 bf 80 a7 20 bf 2b b5 09 40
       0.17907707 -0.97264946 -0.62755585 2.1516826
000190 b0 86 4b 3e 8e ff fc be fc 02 93 be b1 f5 2a bf
       0.19875598 -0.49413723 -0.28713214 -0.66781145
0001a0 5c 66 1e be 8d 93 b1 be fd 39 6f 3f 92 85 81 3f
       -0.15468735 -0.34682885 0.9344786 1.0118887
0001b0 cc 98 c2 3d 7b 2e 62 bf 82 e0 9a be 39 80 9b be
       0.095018 -0.88352174 -0.3024941 -0.30371264
0001c0 b5 01 69 3f 26 4b a8 3e 5e 9b 25 bf fc d0 4a 3e
       0.9101823 0.32869834 -0.64690197 0.19806284
0001d0 1e dc 20 bf 0f ae 26 3e c3 19 e9 3e c4 79 ed 3d
       -0.6283587 0.16277336 0.45527467 0.115954906
0001e0 b3 b6 52 bf 8e 1a 5f be 31 41 13 bf 81 c1 18 3d
       -0.82310027 -0.21787474 -0.5752135 0.037293915
0001f0 24 8e 6c bf b2 26 2b 3e f7 71 7b 3f 96 73 ca 3f
       -0.9240439 0.1671398 0.9822077 1.5816524
000200 07 48 88 bf 8d 91 68 3f 8b 24 cd 3d f3 ce 74 3f
       -1.0646981 0.9084709 0.10016736 0.9562828
000210 3f c5 c7 3f 3d 5b 07 be 97 70 c0 3e 57 ed 9e 3e
       1.560707 -0.13218398 0.375859 0.3104045
000220 0d cb b9 3f 6f 0f 4f be 92 3b 75 3f a8 d0 ea be
       1.4515091 -0.20220731 0.9579402 -0.45862317
000230 a2 87 18 bf b5 c9 00 40 a8 51 56 3f 0d 27 db be
       -0.5958196 2.0123112 0.8371835 -0.4280323
000240 ac 1d 37 bf 7a 88 4f bf c3 cc 86 bf ce c0 88 bf
       -0.7152965 -0.8106762 -1.0531238 -1.0683839
000250 62 b7 7b be 9d f7 2c bf 07 54 b1 bf e9 55 a9 3f
       -0.24581674 -0.6756533 -1.3853768 1.3229343
000260 44 16 12 3e 01 ec 9c bd 98 99 9a 3f f6 12 49 3f
       0.14266306 -0.07662202 1.2078123 0.7854456
000270 d3 38 ec 3e 0d 99 1c be 60 e2 4e 3f f2 1c 94 be
       0.46137103 -0.15292759 0.8081417 -0.28928334
000280 35 41 6b 3f 83 7b b6 bf 65 64 95 be 26 2f b3 3e
       0.91896373 -1.4256443 -0.29178157 0.3499691
000290 1e 85 83 bf ee c2 c2 3e ae 62 b1 be 47 c8 ae bf
       -1.0274999 0.38039345 -0.346456 -1.365487
0002a0 e9 15 14 3f 31 a6 40 3f 42 3d af 3e 1a 3e 72 3f
       0.5784593 0.7525359 0.34226424 0.9462601
0002b0 d0 01 fc be 4a f1 56 3d de 9c 9a be b5 cf c6 be
       -0.49220133 0.052476205 -0.30197805 -0.38830343
0002c0 df 1a 1f bf 17 9f ee 3d 54 36 ba bd 6d 6b b8 3e
       -0.6215038 0.11651438 -0.090923935 0.3601946
0002d0 8d d6 b8 bf 77 a8 20 c0 bd 91 87 3f b8 d6 04 bf
       -1.4440476 -2.5102823 1.0591351 -0.51890135
0002e0 59 7a 37 bf 8f 64 fe 3e 75 d1 21 bf 85 b8 3b bf
       -0.7167106 0.49686095 -0.6321023 -0.7332843
0002f0 6c ec 70 be 2d 35 05 c0 6f 53 4e 3f 2a 52 a6 3e
       -0.23527688 -2.0813706 0.8059606 0.3248456
000300 56 2c 0e 3f b1 ff 48 bf 5c ba 64 3f c3 18 25 be
       0.555364 -0.78515154 0.8934686 -0.16122727
000310 c1 d4 f3 be 89 42 20 3f 37 a4 00 40 b1 da f2 3e
       -0.47623256 0.62601525 2.0100229 0.47432473
000320 92 f0 a7 bf cc aa 90 3d 49 f5 9a 3d 76 6b 9c be
       -1.3120291 0.07063827 0.07566316 -0.30550736
000330 89 51 1b 3f 58 cc ad 3e 13 60 9c be 9d 85 51 bf
       0.6067129 0.33944964 -0.3054205 -0.818445
000340 1d df 45 bf b7 94 bb 3f 76 56 29 3f b9 89 2d 40
       -0.7729357 1.4654759 0.66147554 2.711531
000350 0a 92 64 3f ae ac a4 bd bf 7e a9 be d2 a4 fc 3e
       0.8928534 -0.080407485 -0.33104512 0.49344498
000360 d8 ad 45 3f ff a6 11 bf 5c b7 84 bf 88 27 bf bf
       0.7721839 -0.5689544 -1.0368457 -1.4933939
000370 3e ec 07 3f c9 78 aa 3f ac bf 2e 3f e7 bb 2d 3f
       0.5309485 1.3318111 0.6826122 0.6786484
000380 7b 00 8b 3f cc 14 c0 3f c3 c4 a0 3f 89 c5 b5 bd
       1.0859522 1.5006347 1.2560047 -0.088755675
000390 4a 50 39 3f 75 cd 8e 3f fb f0 91 3e 5e 5e 75 3f
       0.72388136 1.115645 0.28504166 0.9584712
0003a0 61 ab 58 3f 26 ce 5e 3f 38 63 03 be bc 3f 2d 3f
       0.84636503 0.8703331 -0.12830818 0.67675376
0003b0 75 70 2d be 2b e8 84 3f fa a7 dc 3f 42 ae d0 be
       -0.1693743 1.0383352 1.7238762 -0.40757948
0003c0 32 1f a2 bd 5b b0 76 be d2 af 47 bf e6 be 90 bf
       -0.07916106 -0.24090712 -0.78002656 -1.1308258
0003d0 46 fe 87 3f 63 13 ed be d7 d1 5a 3f a1 46 d2 be
       1.0624473 -0.46303853 0.8547644 -0.4106951
0003e0 18 ac 81 3f 68 c1 a7 bf cb 5e b8 3e 7a 4b 5a bf
       1.0130644 -1.3105898 0.3600982 -0.8527142
0003f0 a9 0c 49 3b 83 79 6e 3f a3 b2 7a 3f 4c 16 0d 3f
       0.0030677712 0.9315416 0.9792883 0.5511215

lora_unet_down_blocks_0_attentions_0_transformer_blocks_0_attn1_to_v.lora_up.weight f4 [320, 4]
000000 ae 4a cd 3e 7d 78 0b 3f b8 8c 22 be 92 2a 6a bf
       0.4009604 0.54480726 -0.15873992 -0.9147121
000010 6a 0d 4f bf 43 4f 36 bf 66 13 53 3f 66 4f 13 bf
       -0.80879843 -0.71214694 0.82451475 -0.5754303
000020 0c 92 18 3f 30 ce 6f bf a9 c0 a7 be ff 91 64 3e
       0.5959785 -0.9367399 -0.32764176 0.22321318
000030 96 9f 62 bf 41 62 3d be 62 c2 20 3f fd bf 7a 3f
       -0.8852476 -0.18494512 0.62796605 0.979492
000040 20 aa fe bd d4 e3 2b 3f e7 da 55 40 e6 34 48 be
       -0.124347925 0.67144513 3.3414857 -0.19551429
000050 05 4b dc 3f 60 41 dc 3d d2 60 45 3f 85 f2 1d 3f
       1.7210394 0.10754657 0.7710086 0.6169818
000060 d0 1c 24 be e4 9b f9 3e 06 9c 0a 40 be 4e 98 3e
       -0.16026616 0.48751748 2.165773 0.29747576
000070 68 18 03 bf ec b7 29 c0 b9 dd 35 3e 19 02 c7 3d
       -0.51209116 -2.6518507 0.17760362 0.09717197
000080 ab 99 46 bf 48 c5 7f 3d a4 62 97 bf 54 f9 a7 bf
       -0.7757823 0.062444 -1.1826978 -1.3122964
000090 b8 f4 02 be 28 06 8d 3f 28 64 de 3f ec 1d c4 be
       -0.12788665 1.1017504 1.7374315 -0.3830408
0000a0 37 7f 19 c0 7c 38 35 3f ed d3 2d 3f c1 42 b9 bf
       -2.3983896 0.70789313 0.679015 -1.4473497
0000b0 e8 45 16 3f 0d 5c 10 40 de 2e b1 3e 6c 8d 8e be
       0.5870042 2.2556183 0.3460607 -0.2784227
0000c0 98 61 ed 3e d2 fb d9 3e c6 f1 23 3f a9 88 74 be
       0.4636352 0.42574936 0.6404079 -0.23880257
0000d0 56 2c 52 bf 8d 37 23 bf 24 d8 d4 3f 14 ac 38 bf
       -0.820989 -0.6375664 1.6628461 -0.7213757
0000e0 bd 49 bb 3f d9 d8 ff bf 04 3a 52 bf 13 44 1e be
       1.4631878 -1.9988052 -0.82119775 -0.15455656
0000f0 69 af 91 3e 4d de 92 bf d8 1f d0 3e 04 bd 4c 3f
       0.2845414 -1.1474091 0.40649295 0.79975915
000100 fe 2e 33 3f b2 f1 b9 bf 15 9c 0c 3f 00 fb 86 3f
       0.6999358 -1.4526885 0.5492566 1.0545349
000110 11 09 db be 8f 40 ff 3e 1c 5a 1e 3f e6 0e f8 3f
       -0.42780355 0.49853942 0.61856246 1.9379547
000120 7b 99 30 3f af 2e 5a 3f 45 0b f1 3e 00 5a 9b 3e
       0.6898419 0.85227484 0.4707891 0.30342102
000130 23 39 8c be 39 c1 f0 3d 00 e2 cb 3e ef 2a 52 bf
       -0.27387342 0.11755604 0.39820862 -0.8209676
000140 16 ca b1 bf 60 6a 89 bf 2f 79 6e bf ff c9 16 3f
       -1.3889797 -1.0735588 -0.9315366 0.5890197
000150 53 b0 31 3f c3 95 c0 bf 29 34 b5 bf 11 ea c0 3f
       0.69409674 -1.5045704 -1.4156543 1.5071431
000160 9f 37 57 bf 99 ae 3e bf 2d 84 c2 bf 12 0d 20 be
       -0.84069246 -0.74485165 -1.5196587 -0.15629986
000170 e8 e7 b2 3e 41 d3 5f 3f b0 a2 f9 bd ba 7f 96 3f
       0.34942555 0.8743172 -0.12189233 1.1757729
000180 29 8e f4 3e 49 f9 97 bf f3 95 6c be 67 06 10 be
       0.4776471 -1.1872951 -0.23104076 -0.14064942
000190 5d b9 81 3f 39 54 3d bf 33 df e6 3e 86 15 03 3e
       1.0134693 -0.7395664 0.45092162 0.1280118
0001a0 fb aa bd 3f 17 87 dc 3f 08 e6 b9 bf 59 ab 2a 40
       1.4817804 1.7228726 -1.4523325 2.6667082
0001b0 f3 a1 13 3e 8a f7 7e bf cd 12 7b 3f b4 72 9a be
       0.14417247 -0.99596465 0.9807556 -0.30165637
0001c0 76 8f 7e bf f8 e2 9a 3e 8b 54 4a bf c4 95 f2 be
       -0.99437654 0.30251288 -0.7903525 -0.47379887
0001d0 b5 bc 93 bf 77 3b 02 3f 6c 80 0f bf e5 f9 c6 be
       -1.1541964 0.50871986 -0.5605533 -0.3886253
0001e0 2d 24 c1 3f 3d 86 40 3e 4a ff 97 be a6 bb e5 3e
       1.5089165 0.18801208 -0.29686958 0.44869727
0001f0 d7 d0 4a bf ba 44 06 bd 9e 85 6f be 05 ba c5 3e
       -0.79224914 -0.032780387 -0.23390815 0.38618484
000200 c0 bc 29 c0 cf e7 57 bd b7 83 32 bf e6 3d 65 bf
       -2.6521454 -0.052711304 -0.6973223 -0.89547575
000210 bb 42 1e bf bb 18 ab bf 8a 47 57 3f 5d 58 13 3f
       -0.6182057 -1.3366922 0.84093535 0.57556707
000220 e8 0e 91 bf ba 2d 98 3d 50 c6 33 bf 0f d4 a9 bf
       -1.1332674 0.07430597 -0.70224476 -1.326784
000230 a4 67 0c 40 99 73 c7 bf b6 1b 9f bf fe 6b 00 40
       2.1938257 -1.5582153 -1.2430332 2.0065913
000240 1a bf 90 be 62 37 72 3e 21 e5 2e bf 2b 74 ba 3f
       -0.282708 0.2365394 -0.6831837 1.4566702
000250 b6 ae 60 3d 8e 60 5f 3d a4 64 0a bf de 89 1b 3f
       0.054854117 0.05453544 -0.54059815 0.60757244
000260 6f 01 92 bf c0 25 42 bf c3 f3 41 3f 76 0c 9b 3f
       -1.1406687 -0.7583885 0.75762576 1.2113178
000270 4e c3 6d 3f cd a2 a2 3f ad 2a 09 bf b9 29 12 be
       0.92876136 1.2705933 -0.53580743 -0.14273728
000280 03 9a 6c bf 0a 59 4d 3e 4b d2 c5 3f ed ba a8 3e
       -0.92422503 0.20053497 1.5454801 0.32955113
000290 f3 48 77 3f 13 49 da bd 87 f9 2f 3f 75 ae f6 be
       0.96595687 -0.10658469 0.68740124 -0.48179975
0002a0 8f d4 24 3f ab 4f 9c bc 3d 72 c2 3e d7 0b a5 3e
       0.6438684 -0.019080957 0.37977782 0.32235596
0002b0 0c 41 99 be 00 4a 23 bf fc 9f 94 3f cc 55 01 3f
       -0.2993244 -0.6378479 1.1611323 0.5052154
0002c0 1a a2 c3 bf 46 80 b2 bf 9a dc 61 be 42 7f b6 bf
       -1.5283844 -1.3945396 -0.22056809 -1.4257586
0002d0 92 91 a3 3f 04 e7 ae be fe 78 e8 be 2d a4 0d bf
       1.27788 -0.34160626 -0.4540481 -0.5532864
0002e0 24 53 61 3f 06 fa 50 3f fd 69 6e be 90 31 1e 3f
       0.8801749 0.81631505 -0.23282619 0.61794376
0002f0 77 a4 95 3f 2a e0 01 3e a9 bf 57 bf 66 e6 1a 3f
       1.1690816 0.12683168 -0.84276825 0.6050781
000300 81 6c 1a 40 0a 2e 86 3c 79 ec 8c 3f 86 c6 a9 bf
       2.4128726 0.016379375 1.1009666 -1.326371
000310 f7 71 68 3f 42 23 a5 3f d0 d9 39 40 8a 1b 7b 3f
       0.90798897 1.2901385 2.9039192 0.98088896
000320 4b 0e e0 3f a4 b8 46 3f 9e d5 8b be 77 19 86 bf
       1.7504362 0.7762549 -0.27311414 -1.0476521
000330 c8 2c a0 3f 0c 62 12 3f e7 86 99 3d 4e b5 d2 bf
       1.2513666 0.5718086 0.07496434 -1.646158
000340 10 0a 2a 3e 03 47 f4 be d9 5d 4c be 57 11 b1 3d
       0.16605401 -0.47710428 -0.19957675 0.086458854
000350 1b 13 3a 3f 31 d2 3a 3f ec 29 8a 3f 2e 70 15 40
       0.726854 0.72976977 1.0794044 2.334972
000360 ac 14 7a 3d 5c ec 4a bf 9a fc c6 3e 54 c2 03 bf
       0.06105487 -0.79266906 0.38864595 -0.51468396
000370 a7 59 ed 3f 81 3a c3 bf dc 12 2b bf 4d 9c 9b 3f
       1.8542985 -1.5252229 -0.6682565 1.2157074
000380 17 35 1e bf 36 3f 39 bf b0 14 68 bf f6 b2 bb 3f
       -0.6179976 -0.7236208 -0.90656567 1.466399
000390 07 5f 18 3c cc 3e c5 3e db b4 3b 3f 83 9c 84 3e
       0.0093 0.38524473 0.7332284 0.2590066
0003a0 96 1d 34 bf 32 8a 9a 3f 6f 57 ba 3f 47 5c ff 3d
       -0.70357645 1.2073424 1.4557933 0.124687724
0003b0 81 c1 93 3f fd 9a a9 3f ae 0a a0 bf 9c 8e 94 3f
       1.1543428 1.3250424 -1.2503259 1.1606021
0003c0 69 0c f1 3f 28 97 ac 3e d8 f8 6c 3e 49 5a 9a 3f
       1.8831912 0.33709073 0.23141801 1.2058803
0003d0 94 01 fd be b3 ac 22 c0 03 56 6b bf 9b fc da 3f
       -0.49415267 -2.5417907 -0.9192812 1.7108339
0003e0 17 fa 86 3e 3b ac d7 be 32 04 06 3e 7f 58 3f 3f
       0.26362678 -0.4212359 0.13087538 0.7474441
0003f0 5e 2c 09 be 05 4f 0d 3f d6 18 a5 be 53 62 1a bf
       -0.13395831 0.551987 -0.3224551 -0.6030628
